traffic-prediction-dataset.tflite (tflite, 50496 bytes, 8 tensors)

arith.constant f4 [4, 32]
00000000: 02a3 c43e 5189 36bd 949e 603e d22d 3ebf
00000010: 4e6f 463e 0f3a 243d d77c a4bd b555 863e
00000020: c28c 563e 384e 81bc 7128 c8be c302 a6be
00000030: 76c5 67be 1ca4 d0be 58db c83e d607 6abf
00000040: f482 873e 19a1 9bbd a024 82be 0095 dfbe
00000050: 3f93 44bf c4da 513e ed7c 2dbd 204b 72bf
00000060: 9f44 48bf 3b07 293e 8f17 bd3e 00db ecbe
00000070: 1e9f e6be bb17 a8be dcad 6fbe 7178 a43e
00000080: a7e5 d63d 39e0 7d3e f0b6 35bf 1ff3 62bd
00000090: f3f8 1abf b2af 81bf 6ee6 423d 9fcc 423d
000000a0: 6e7a a53e abbb bb3e 7482 f0be 8e37 49be
000000b0: 2ac5 213e 9421 92bd d7b8 183d e221 183e
000000c0: 11fc c1be bad9 f7be 4e50 5b3d 2545 04bf
000000d0: 6c46 28be 83b8 273e 3e9a fa3d d896 cb3e
000000e0: 482f 273f d540 8dbe c57f 05bf 8bc4 b53e
000000f0: e97e 42bf 10ca c23e ada9 1cbf fcd6 b43d
00000100: 55eb 9dbe 5f8a d63e 29b3 6fbe 8a65 953e
00000110: b16c e53e 8b63 103f 50b7 2dbc 306b a9be
00000120: 4dfd 15bf 7ad1 88be 496c 2a3f 09bc 753e
00000130: 40eb 81be 07df 94bd a277 34bf 136c 5a3e
00000140: 22ee 8abe 0792 353f 32d5 e03e 6ef3 c73d
00000150: 341e bd3e d38a 9fbe ed3e 05be 00b4 d93e
00000160: 8d5a 5b3e 43a8 59bf 94ec 7ebf 5c26 0dbf
00000170: 14b8 b73e 6d2f 693d 2c4f 2ebd bc73 62bc
00000180: 1f01 7dbe ec7c a7be 0ee0 653f 17b8 183e
00000190: f6ca 183e 7183 823d 3d48 84be a149 bfbe
000001a0: bff9 3b3d 791d 59be ef52 48be 64e4 fbbb
000001b0: f078 9dbd bc4b 56be 6bd5 4dbe dbbd 0e3e
000001c0: 824e 983d b67c 35bf 39c4 febe d966 be3d
000001d0: f331 d93e 2e8d a33e 858d e6bd 4f79 893e
000001e0: 3af4 803e 5eca a3be b3f4 d03e 934c 0b3e
000001f0: c168 a53e 66d8 30be 8996 183e 3b55 e03c
0.38405615 -0.04456455 0.21935493 -0.74288666 0.19378397 0.04009443 -0.08031624 0.26237264
0.20952132 -0.015784368 -0.39093354 -0.32423982 -0.22633919 -0.40750206 0.39229846 -0.91418207
0.26467097 -0.07599086 -0.25418568 -0.43668365 -0.7678718 0.20493609 -0.042355467 -0.9464588
-0.7822971 0.16506664 0.36932036 -0.46260834 -0.45043272 -0.32830605 -0.23406166 0.3212314
0.104930215 0.24792565 -0.70982265 -0.05540764 -0.60536116 -1.0131743 0.047583036 0.047558423
0.3231997 0.36666617 -0.46974528 -0.19650099 0.15797868 -0.07135311 0.037285652 0.14856675
-0.37887624 -0.484083 0.05354338 -0.51668006 -0.16433114 0.1637898 0.122364506 0.39763522
0.6530652 -0.27588525 -0.52148086 0.35501513 -0.759749 0.38044786 -0.61196405 0.088300675
-0.30843607 0.41902444 -0.23408188 0.2917903 0.44809487 0.5640189 -0.010602787 -0.3308959
-0.5858963 -0.26722318 0.6657148 0.23997511 -0.25374794 -0.072691016 -0.70495045 0.2133029
-0.27134806 0.70925945 0.43912655 0.097632274 0.36937106 -0.31160602 -0.13012286 0.42520142
0.21421261 -0.8502237 -0.9957974 -0.55136657 0.35882628 0.056929994 -0.042555973 -0.013821539
-0.24707459 -0.32712495 0.89795005 0.14913975 0.14921173 0.06372727 -0.25836363 -0.37360862
0.045892473 -0.21202649 -0.19562887 -0.0076871384 -0.076890826 -0.20927328 -0.20100944 0.13939612
0.07436849 -0.7089342 -0.4975908 0.092969604 0.4242092 0.3194365 -0.112574615 0.26850364
0.2518633 -0.3199033 0.4081169 0.1360343 0.32306483 -0.1727005 0.14901175 0.027384391

arith.constant1 f4 [32, 64]
00000000: c1dc c33d 8736 41be a04a 67be d4e4 c1bb
00000010: f7f2 cebd c4b0 593e e00a 54be 0eef 2fbe
00000020: 8549 9c3d fd7d 983d 7888 0a3e a0b2 5b3d
00000030: 49a5 4bbe a61d 3cbe ea0f e13d e3f6 563e
00000040: 02b8 483e 21d1 89bd d571 38bd a441 83be
00000050: 13d1 b93d 41ad 5dbe a9d9 37be f73a be3d
00000060: 50f4 71bd 78ca efbd 8373 da3c fc17 0f3e
00000070: 1ebd 253c 447d 533e 15bc 23be 0c3d 5e3e
00000080: 8275 b93d 2ec0 ae3d 5142 4b3e 007c e73a
00000090: 4cb2 10be 37f8 87bb 52be 70be 3dcc 13be
000000a0: 77bc debd 049e 553e e095 62be dcd2 6e3e
000000b0: 9fb7 65be 44f1 34be 2d7f 10be 98f4 53be
000000c0: 4fa5 093e f43a 8a3d ec3a 303e 6e1a 5bbd
000000d0: 5573 88bb 0423 3b3e e865 7fbe 11e4 12be
000000e0: 2170 593e 0839 463b 93d9 43be f59a f8bd
000000f0: aa80 41be 19d6 c63c 74e3 733e 9cb6 20be
00000100: 08b9 883e 95b5 12be 4a04 87bd b579 66be
00000110: 605b cdbe 8cd5 793e 1f4b 173d 465a 28be
00000120: d914 54bd 9e7c 92be 20f7 133e 8a34 203e
00000130: 1676 83bd 1ffb 8fbe cb35 2ebe 70a4 b3bb
00000140: c09b e73d 8bc8 62be 4a61 cdbe 4e29 b03e
00000150: 4496 4cbd 2367 9abd 4dc1 f6be 203b 62be
00000160: dffd 85bd 3d39 bb3d 135c 55bd 624a 2bbe
00000170: 670f ebbe dd78 4d3e c3b7 8dbd c012 73bd
00000180: e1c8 05bd 42b5 6a3e f42c e4be f62f 903e
00000190: 42ef 6ebe 2784 8dbd 3ce6 44be e06e ff3d
000001a0: ed75 203e 7eef efbd 8f32 5c3e 0bed 67be
000001b0: 3781 6d3d cd3c 7a3d d148 813e fcc4 4abd
000001c0: b286 363e 8704 133e fa0a b8bc cfa9 9d3e
000001d0: c2a4 43be cce6 f4be 2217 ee3e 2adb 08be
000001e0: 305e cc3b a615 eabb de30 c13c 6adc 1dbd
000001f0: 708c 073e a2ff cb3e 9184 1d3e a10b 28be
00000200: 6753 203d c81f 12be 0ddd cabd 8081 f63e
00000210: 325f cb3d a900 80be 1df7 3cbf 40bf 64be
00000220: f92f 6ebf 6f1a 12bf 34b4 12be fd99 38bd
00000230: e9a1 ae3e 1868 a43d 9e61 653e d4dc 4dbe
00000240: fdb7 893c 8df7 e33e b823 0e3e 9aa3 043d
00000250: 27b0 9b3e a50c 5b3e 8c6b b53d 218e 12bf
00000260: f523 b1bc dc2d 74be 0041 413e 7862 693d
00000270: 438e 0abe a6e7 db3d b75d 993e e087 823c
00000280: 2810 563d 511d 41bf 4c17 7dbe ffb7 a83e
00000290: 7f36 7ebe 70b0 69be 4d67 42be e5b0 21bf
000002a0: 6b2d 2a3e a9fa 60be e0dd e33c 0097 a9bd
000002b0: 9bb0 aa3e 5038 883e 345a 853d 6730 2abe
000002c0: 4218 d03d 4b2f 923e 986c fbbc e589 2f3e
000002d0: bf2d 94be fe23 f93e 322a cc3e e223 2c3e
000002e0: 772a 863d a7d3 af3d 2394 813e b500 bebd
000002f0: 19f0 63bf 357c 9dbe 9ba7 5fbf d48d 1e3f
00000300: 236c db3d 8b6a 9e3e c23d 07be 6546 98be
00000310: 8de8 7fbe 48e6 333e c5cc 9dbc 5481 29be
00000320: 56d9 1e3e 87d6 17be 4477 2a3e ae01 323e
00000330: 1736 ac3e f505 263e 0b27 10be 2360 c1bd
00000340: 55ec c13e 857c abbe 695e 97bd 9a67 853e
00000350: 8227 a13e c15d d33e 98eb 8c3d 5577 233e
00000360: de04 d73e cb2a 353e 47f8 973e 43ca afbd
00000370: acf2 a6bd 2d1e 3e3e e2ae 86bd 58e0 6ebe
00000380: 19f9 713d 2359 21be 3321 8fbe c26f b73e
00000390: 56ab 37be ed0b 21be 161a af3e 8691 5dbd
000003a0: 2c91 473e dabd 9ebd 2e3a 42bd 8329 e03d
000003b0: 1ae1 b23e b7cc 6fbe 09b2 ea3d 04c6 503e
000003c0: 869a 4f3e 3947 c1bd da77 81bb a2f0 293e
000003d0: 22f7 913e 9d88 5dbd 2322 533e 0074 243e
000003e0: 33cf 4c3d 9286 14be 1887 823e c167 9abe
000003f0: b9ee 35bd df72 9e3e abc4 29be 3e43 a43e
0.0956359 -0.18868457 -0.22587061 -0.005917171 -0.101049356 0.21258837 -0.20707273 -0.17181036
0.0763121 0.07445905 0.13528621 0.053637147 -0.1988727 -0.18370685 0.109893635 0.20992617
0.19601443 -0.06729341 -0.045030434 -0.25636017 0.09073081 -0.21648122 -0.17954125 0.092885904
-0.059070885 -0.1170854 0.026666408 0.13973993 0.01011589 0.20653254 -0.15989716 0.21702975
0.09055616 0.08532749 0.19849516 0.0017660856 -0.14130515 -0.0041494626 -0.23510101 -0.1443338
-0.108757906 0.2086106 -0.22127485 0.23322624 -0.22433327 -0.1767016 -0.14111014 -0.20698774
0.13441966 0.06749526 0.17209977 -0.053492002 -0.0041641393 0.18275076 -0.24941218 -0.14344813
0.2123418 0.0030246396 -0.19125967 -0.12138931 -0.18896738 0.024272012 0.23817235 -0.1569466
0.26703668 -0.1432708 -0.06592615 -0.22507365 -0.40108776 0.24397868 0.036936875 -0.16440687
-0.051777694 -0.286107 0.1444974 0.15645042 -0.064190075 -0.28121278 -0.17012708 -0.005482249
0.11309004 -0.22146814 -0.40113288 0.34406513 -0.049947992 -0.07539203 -0.48194352 -0.22092867
-0.06542563 0.09141777 -0.052089762 -0.16727594 -0.4591019 0.20065637 -0.069198154 -0.059344053
-0.032662276 0.22920707 -0.44565547 0.2816159 -0.23333457 -0.06909972 -0.19228452 0.124723196
0.15669985 -0.117156014 0.21503662 -0.22649018 0.057984557 0.06109314 0.25250867 -0.049504265
0.1782482 0.14357196 -0.022466172 0.30793616 -0.19105819 -0.47832334 0.46502024 -0.13364854
0.006236814 -0.007143694 0.023582872 -0.03854028 0.13237166 0.3984347 0.15382601 -0.16410686
0.03914204 -0.14269936 -0.09905443 0.48145676 0.099302664 -0.25000504 -0.73814565 -0.22338581
-0.9304195 -0.57071584 -0.14326555 -0.04506873 0.34107903 0.08027667 0.22400519 -0.2010377
0.016811365 0.44524804 0.13880813 0.032382585 0.3040783 0.21391542 0.088584036 -0.5724812
-0.021623591 -0.23845619 0.18872452 0.056978673 -0.13530831 0.10737543 0.2995431 0.01593393
0.0522615 -0.7543536 -0.24715918 0.32952878 -0.24825476 -0.22821212 -0.18984719 -0.63160545
0.16618888 -0.2197062 0.02781576 -0.08280754 0.33337864 0.26605463 0.065113455 -0.16620027
0.10160877 0.28551707 -0.03069143 0.17142446 -0.28941151 0.48660272 0.39875942 0.16810563
0.06551068 0.08585291 0.25308332 -0.092774786 -0.89038235 -0.30758825 -0.8736512 0.6193516
0.10713985 0.3094066 -0.13207152 -0.29741207 -0.24991055 0.17568314 -0.01926268 -0.16553241
0.15512595 -0.1482793 0.16647059 0.17383453 0.33635017 0.1621321 -0.14077394 -0.09442165
0.3787562 -0.33493438 -0.07391054 0.26055604 0.31475455 0.41282466 0.068808734 0.1596349
0.419959 0.17692105 0.29681608 -0.085835 -0.08151755 0.18566199 -0.06576325 -0.23327768
0.05907545 -0.15756659 -0.27955016 0.35827452 -0.17936453 -0.15727206 0.3419959 -0.05409386
0.19488972 -0.07751055 -0.047418766 0.10945418 0.34937364 -0.23417936 0.11459739 0.20388037
0.2027379 -0.09437413 -0.003951055 0.165957 0.2850886 -0.054085363 0.20618491 0.16059875
0.050002288 -0.1450446 0.25493693 -0.30157283 -0.044417117 0.30947015 -0.16578929 0.32082552

arith.constant2 f4 [64, 128]
00000000: 1e9b b83c 9d47 453e ddf8 3abe 511b 0d3d
00000010: c882 31be 2e26 93bb 72a2 7d3d 7bd3 8f3d
00000020: aa2f cc3d 7d08 15bd 60b0 2fbe 1cbd b93e
00000030: c06f e83c 5e5c 91bb 556f b13e de79 c13e
00000040: 6fed 423e c495 74bc 09cf 2f3d 105f 173e
00000050: 5999 d13d 4c4f a4bd ee61 a13c 8ad3 813d
00000060: 2b9f 45be 2728 253e 11e8 0c3e b1b8 e53d
00000070: a0b9 833e 7b2c a2bc be85 433e 2307 963e
00000080: 85eb 44be e0b8 853e e265 613e bf3c 1c3d
00000090: b349 17bd 4cbf a13e 2d9d 8a3d 4ca1 4c3d
000000a0: e6bd 223e bbfc 363e b29c 95be 158a 01be
000000b0: 91e6 523e 9b0c 78be 01f0 9abe 1c26 0c3e
000000c0: d89a 1ebe 0df7 adbc 32db 183e fb57 2e3d
000000d0: 8184 dbbc cf2f fbbd 96e1 963e 1d6d 46be
000000e0: b5b3 763e deb6 4b3e 5d0e 703d 4833 e2bd
000000f0: 7dba f7bc c99b 35be 9f01 7c3e f0f5 55bd
00000100: 9238 24bd dfe7 803c ec62 913a 40c1 8a3e
00000110: d78a a6bd 47c6 a0bb c618 f63c d539 0d3e
00000120: 21cd c0bd 7bd6 463e f71b 26bc 444d 113d
00000130: 1f8d 223e 31a8 203e 9e6d 183e 81ba 253e
00000140: 7200 a03d d4f8 d73c 992f 71bd 6e33 413e
00000150: 50f1 12bd 2f8b a53e 810d 3c3d 6d11 acbd
00000160: 3b43 45be f913 c2bd fa65 573c e581 d53c
00000170: 4d36 c43d 772f 383d 128b 463e 12dc 133e
00000180: 4e97 83bd 3b37 f83d aa6f 013d 9ed6 973e
00000190: 9e7d 48be e989 ccbd f507 93bd 234f 313d
000001a0: bc2e fd3d 3003 7bbd de78 86be 2e2b 69bc
000001b0: 35d3 afbd 1f3d 68bd df77 9a3d 28fd bc3e
000001c0: dec7 5e3d da11 963e b9c0 b0be 5373 293e
000001d0: bcaf 9c3e e815 563e b155 443e 79f4 e83d
000001e0: 5f25 a03d 1d2b 0c3e eeb3 3fbd 1def 053e
000001f0: aea9 f4bd 7ef5 6dbc 6248 863d 4bf0 553e
00000200: d454 ec3c 8794 6d3e df82 8c3d 443d ebbd
00000210: 14b1 cd3d 8e5f cfbd dd90 0f3e 7689 a83d
00000220: 0cd6 963d 2ebb 89be aaac 223b 1dc5 253e
00000230: d19e 71be ace2 0d3d e57b 9e3e 52f9 fd3d
00000240: 0deb 5b3e 680c 1c3e 5e41 f53d d24c cebd
00000250: 3a47 e2bd 6a30 3f3e 41df d53d eba3 cd3c
00000260: 66f8 4e3d 2cf5 723e e26e 7abd 664a 713e
00000270: fc65 af3e 9de6 33bd 5700 ff3d 7831 dd3d
00000280: 0fbd 453d 598a 8c3e 46f2 8cba 18c5 8a3e
00000290: 716e 3fbe d70f 143e 0107 293d 9a06 8bbc
000002a0: 13ad 1ebc 1473 9cbd e7af 85be 7f3c b03c
000002b0: fbcc e03d 7742 64be b52a b0be dbc8 543e
000002c0: 4bb6 b9bd f12d fbbd 408f 2e3e 2f7b fe3d
000002d0: dcf1 3cbe 2136 28be 8c3f 26bc 76aa b23d
000002e0: aa58 ea3e 8d24 d43e 712c 5e3e 02c2 a13d
000002f0: d25b ee3b 14ae 4abe 09fd 8f3e e607 00be
00000300: 7f15 103e e31c 4ebe 605f eabd 6f36 fb3d
00000310: 0751 4bbd 2548 b6bc dfb2 6d3d d7f7 1a3e
00000320: 4507 563c c7f0 a9bd 8789 f2ba 4fe0 233e
00000330: 5ab4 1e3c cad8 113e a5b6 f3bc 119c 683e
00000340: 778b 98bc 8c25 d9bc 6f5a e23c e7c8 b73e
00000350: 4bad f2bd 5b0d 413e 9c1c b03e f6cc 1c3e
00000360: 971f 22be e2ab 88bc f7a1 7d3e afea a93d
00000370: 8969 8ebd f6b6 8d3e e90e 4e3e c095 e13e
00000380: ed86 2cbe 3261 db3c 2b0c 893e 4a39 9b3d
00000390: 850b a3be 0fa9 2e3c b03a 173d d6a6 e93d
000003a0: d5f7 513e 7f64 433d 93df 67be b297 453e
000003b0: 4dea 5dbd c69a 92bd 009a 863e 64f8 d93d
000003c0: 0112 d0bc b26b 0e3e af7e 0ebe 9f0a 263c
000003d0: c8aa de3e fe82 333c 83cc 853d e9b7 d33a
000003e0: d92e 97bd 51a8 713e 39e2 8bbd ec07 1fbd
000003f0: 607f c1bd eeb1 963e bfc4 923e 2b59 923e
0.022534903 0.192656 -0.18258996 0.03444988 -0.17335045 -0.0044906354 0.061922498 0.070227586
0.09970029 -0.03638505 -0.17157125 0.36277092 0.028373599 -0.00443606 0.34655252 0.3778829
0.19035886 -0.014928285 0.042922053 0.14782357 0.10234327 -0.08022937 0.019700017 0.06339176
-0.19298999 0.16128598 0.13760401 0.11216868 0.25727558 -0.0197966 0.19093987 0.2930232
-0.19230469 0.2611761 0.22011521 0.03814387 -0.03693552 0.3159126 0.0676826 0.049958512
0.15892753 0.17869847 -0.29221112 -0.1265033 0.20595767 -0.24223559 -0.30261233 0.13686413
-0.15488756 -0.021235967 0.14927366 0.042564373 -0.026796581 -0.12264978 0.29468983 -0.19377561
0.2409199 0.19893977 0.058607448 -0.11044937 -0.030240292 -0.17735209 0.24609993 -0.052236497
-0.040093012 0.015735565 0.0011092103 0.27100563 -0.0813195 -0.004906449 0.03004111 0.13791592
-0.09414125 0.19417755 -0.010138503 0.035474077 0.15874146 0.1568916 0.14885566 0.16184427
0.07812585 0.026363768 -0.058883283 0.18867275 -0.035874665 0.3233275 0.045911316 -0.08401761
-0.19263928 -0.09476466 0.013146872 0.026062915 0.095806696 0.04496714 0.19388989 0.14439419
-0.064253435 0.121199094 0.03160063 0.29655927 -0.19579169 -0.09987242 -0.07179252 0.04328836
0.123624295 -0.061282337 -0.2626409 -0.014231486 -0.085852064 -0.056698915 0.07542395 0.36911893
0.054389827 0.29310495 -0.34522036 0.16547899 0.30602825 0.20906794 0.19173314 0.113747545
0.07819628 0.13688321 -0.046802454 0.13079496 -0.11946426 -0.014523862 0.06556775 0.20892446
0.028849043 0.2320119 0.06860899 -0.11486295 0.100435406 -0.101256475 0.14020105 0.082293436
0.07365045 -0.2690062 0.0024822154 0.16188474 -0.2359574 0.03464 0.309539 0.1240107
0.21476384 0.15239108 0.119753584 -0.10073246 -0.11048742 0.18670812 0.10442973 0.025102576
0.05052986 0.23726338 -0.061140902 0.23563537 0.34257495 -0.0439211 0.12451237 0.10800451
0.048276003 0.274493 -0.0010753355 0.27103496 -0.18694474 0.14459167 0.041266445 -0.016970921
-0.009684819 -0.07639137 -0.26110765 0.021513222 0.10976597 -0.2229098 -0.34407583 0.20779745
-0.09067973 -0.12264622 0.17046833 0.12425839 -0.18451637 -0.16426899 -0.010146987 0.08723919
0.4577077 0.41434136 0.2169664 0.07898332 0.0072741294 -0.19792968 0.28122738 -0.12503013
0.140707 -0.20128207 -0.114439726 0.12266242 -0.04963782 -0.022251198 0.058031913 0.15133606
0.013063257 -0.08297878 -0.0018504121 0.16003536 0.009686554 0.14242855 -0.029750178 0.22715785
-0.01862119 -0.026507162 0.027631013 0.35895464 -0.11849459 0.18852751 0.34396827 0.15312561
-0.15832363 -0.016683523 0.24768816 0.082967155 -0.06953723 0.2767865 0.20122875 0.44059563
-0.16848345 0.026779745 0.26767096 0.075792864 -0.31844726 0.010660424 0.036921203 0.114087746
0.20504697 0.047703262 -0.2264388 0.19296148 -0.054178525 -0.07158427 0.26289368 0.1064308
-0.02539921 0.1390827 -0.13915513 0.010134368 0.4348967 0.010956524 0.06533148 0.0016152832
-0.07381982 0.23599364 -0.06830258 -0.038825914 -0.09448123 0.29432625 0.2866573 0.28583655

arith.constant3 f4 [4]
00000000: 44a4 8bbd a7f1 1e3e 9d2f 30bd f047 92bd
-0.068184406 0.1552187 -0.043014158 -0.07142627

arith.constant4 f4 [32]
00000000: 4b3b 50bc 7ca7 9a3c 41a1 24bb 8cbd 363e
00000010: 08be 1a3e 4fb0 1d3e 1ce5 8bbc 51c9 a2bc
00000020: 3f93 c33d b8ba 0abc 184d ee3d 337f 0b3c
00000030: c63d a7bc 5560 01bd 8880 103d f2fb 6f3e
00000040: afb6 c43b 2e17 8d3d f2ed 7b3d e9f2 db3d
00000050: 4090 f63d 87ec 9f3c 41ee c4bb 707d 613e
00000060: 7ae8 363e 7e23 eeba d189 b0bb da21 cc3d
00000070: 8b48 013e 54c4 a3bc bf36 f7ba a123 9abb
-0.012709449 0.01887869 -0.002512053 0.17845744 0.15111554 0.15399288 -0.017077021 -0.019871386
0.09549569 -0.008467369 0.11635798 0.008514213 -0.020415198 -0.03158601 0.035278827 0.23435953
0.006003223 0.06889187 0.06150622 0.10739691 0.12039232 0.019521965 -0.0060098474 0.22020507
0.1786212 -0.0018168536 -0.0053875227 0.09967394 0.12625329 -0.019991077 -0.001886092 -0.0047039543

sequential_1/dense_1_2/BiasAdd/ReadVariableOp f4 [64]
00000000: 13ab 613e ddf7 603e 2de4 f2bc da75 84bc
00000010: e971 01be 02a1 3f3e 771d 96bd f2e1 a5bc
00000020: fea4 0dbe e961 83bd 0000 0000 a673 7a3e
00000030: 46d0 3d3e e46a 2cbd 67b1 edbc dc1f 21bd
00000040: 07ba 293e 496f 26bd 6ef1 4bbd 13da 163e
00000050: 71b4 d53d 1594 4c3e a2b1 5ebd cd7f 8b3d
00000060: 2a90 2b3e 0889 693e 0762 093e 0ca8 b2bc
00000070: ba6c dfbd 0c1a 7d3e 967b c53d 0000 0000
00000080: d1b7 523e 32f1 64bc 0fac a5bd 684a 6e3e
00000090: d2da 92bd 9900 22bd 4f29 703e 9b65 013d
000000a0: f45e 063e 3757 08bd fd95 0cbc 874e 613e
000000b0: 0395 6f3e 5879 083d df70 a63d b6db e1bc
000000c0: 6b39 be3c de8d f43b 2b56 a4bc 985c 553e
000000d0: 92d2 3b3e daef 7cbb bf14 ba3d 67e0 053c
000000e0: a491 3e3d 176a bb3c 1570 623e 557f 61bd
000000f0: cfb6 e3bd 9d0d 093e f2fc 9ebd a6d9 b1b9
0.22037916 0.21969552 -0.029649818 -0.016169477 -0.1264111 0.18713763 -0.07329839 -0.02024934
-0.13832471 -0.06415159 0.0 0.24458179 0.18536481 -0.042094126 -0.029015256 -0.039337024
0.1657487 -0.040633474 -0.049790792 0.14731626 0.10434807 0.19978364 -0.054368623 0.068114854
0.16754213 0.2280618 0.134163 -0.021808647 -0.1090941 0.24716967 0.09642713 0.0
0.20577933 -0.013973521 -0.08089458 0.23270571 -0.07170643 -0.03955135 0.23453258 0.03159104
0.13122159 -0.0332863 -0.008580682 0.22002612 0.23396687 0.033318847 0.08126997 -0.027570587
0.023220738 0.007463201 -0.02006062 0.20836103 0.18342045 -0.003859511 0.09085988 0.0081711775
0.046525612 0.022877736 0.22113068 -0.055053074 -0.11118852 0.133841 -0.07763089 -0.00033922232

sequential_1/dense_1/BiasAdd/ReadVariableOp f4 [128]
00000000: 97f8 b1bd 6347 313e d9a1 ecbd 23cd 25be
00000010: 6e29 6fbd caa0 45bd 3269 6f3d 3e75 6cbd
00000020: f0e6 55bd 543b 68bd a988 13be 5764 853e
00000030: f615 1bbe 7639 bdbd 1ba3 493e 8fd5 3a3e
00000040: 92f4 3d3e 4314 f63d 0f21 b83d 7e37 13bc
00000050: 2edc f3bd 8a92 f93d 8847 013e b112 55bd
00000060: 4b1e 09be 4ed5 6c3e f0d4 093e 4fd3 ad3d
00000070: b6d8 3a3e 0fc7 093b 85f8 243e ce65 603e
00000080: 77af 31be 16bb 093e a4e9 7a3e 9a13 ee3d
00000090: 8e7b 0fbe 8c65 5a3e 461e 213e ca6e de3d
000000a0: c1b6 d3bd 9302 f73c 1637 48bd cae8 efbd
000000b0: 30a1 323e 95bb 23be 45e5 34bd 61e3 5e3e
000000c0: c2c9 38bd 9441 38be e590 253e d289 c13d
000000d0: aa11 e2bd d73a e0bd 632c 3e3e 7090 e3bd
000000e0: b828 853e 4826 823e 0e5c 0e3e 8bb7 bcbb
000000f0: 4746 be3d d36a 01be a909 0b3e c5ff c8bd
00000100: b34a 05be b36c 7c3c 23b3 fb3a 42f4 103e
00000110: b555 11be 365f 40bd 7e0e 103e dd90 76bd
00000120: 76e5 c53b 22a4 3d3d 5382 02be ce26 dc3d
00000130: 8ba0 a6bc 7f82 623e 2e88 193e b227 763e
00000140: 1b20 613d c2ba 20be 28da bc3d ab4d 2d3e
00000150: 7255 5ebd e20a 393e 460b 943e b6e5 933d
00000160: 42b6 0abe d328 08be 5672 6c3e c98d b6bd
00000170: 93f7 1bbe 97dc ab3d 2f53 803d 5d90 753e
00000180: 9b12 4dbd e3ed 1e3e cce9 3b3e 7563 2d3e
00000190: bd7b 7dbd e857 bc3d a109 a3bd a56a e53d
000001a0: 6689 2e3e 42f2 15be 880e cfbd 8443 f03d
000001b0: 0000 ed3b 1aa1 b6bd a999 183e 6bc4 013e
000001c0: b8d4 3c3e 231e 883e 1938 80bd ee27 d93d
000001d0: b26f 1a3e 718f 0e3e a0ec 1a3e 3ca6 b93d
000001e0: 6cde 2fbd dcf0 323e 32c0 8cbd ccd4 8ebc
000001f0: 043f c13a 2271 753e 48b7 9c3c 7af5 db3d
-0.08689993 0.17312388 -0.115543075 -0.16191535 -0.05838912 -0.048249044 0.05844993 -0.057729
-0.052222192 -0.056697205 -0.144076 0.26053116 -0.15145096 -0.092394754 0.19691126 0.18245529
0.18550327 0.12015583 0.089906804 -0.008985398 -0.1190723 0.12186153 0.12624943 -0.05201978
-0.13390462 0.23128244 0.13460135 0.084875695 0.18246731 0.002102319 0.16110428 0.21913835
-0.17352091 0.13450274 0.2450319 0.116248325 -0.14011976 0.213278 0.15734205 0.10860975
-0.10337592 0.030152595 -0.04888066 -0.11714323 0.174443 -0.15989526 -0.04416396 0.21766426
-0.045114286 -0.17993766 0.16168554 0.09450115 -0.110385254 -0.10948723 0.1857162 -0.11111534
0.26007628 0.2541983 0.13902304 -0.0057591847 0.09290748 -0.12638406 0.13577904 -0.09814409
-0.13016777 0.015406775 0.0019203167 0.14155677 -0.14192851 -0.0469658 0.14068028 -0.060196746
0.0060393168 0.046299107 -0.12745027 0.10749589 -0.020340225 0.22120093 0.14993355 0.2403858
0.05496226 -0.15696242 0.092212975 0.16924159 -0.054280706 0.18070558 0.2891485 0.07221548
-0.13546088 -0.13296823 0.2309049 -0.08913762 -0.15231161 0.083916835 0.06265866 0.23980851
-0.05006657 0.15520434 0.18350905 0.16932471 -0.061885584 0.09196454 -0.07960821 0.112019815
0.17044601 -0.14643195 -0.101101935 0.117316276 0.007232666 -0.089174464 0.14902367 0.12672584
0.18440521 0.26585492 -0.062607 0.10603319 0.15081671 0.13921906 0.15129328 0.0906491
-0.042936727 0.17474693 -0.06872596 -0.017435454 0.0014743512 0.23968938 0.019130364 0.1074018

sequential_1/dense_1/MatMul f4 [128, 11]
00000000: 2e1a b53e 8d9f 923e 3e80 58bd a1f6 283e
00000010: d6b3 7a3e f57e 463e 8a7a d63d 9b43 9dbd
00000020: 1074 af3c b177 d13c 5949 bcbc 4faa 21be
00000030: 923b b43d 01ee 1cbd 1050 80be dc08 0d3d
00000040: e4e2 13bd 070e 4e3e 2302 39be 924d a63d
00000050: 6a7a 27be 3a23 b3bd b982 c43e c5ac 91bd
00000060: dcc8 393e b8de 4f3c 80a3 c33e d3ef 8d3d
00000070: 4d1e 11be d1b6 19be e6dc 1d3e 78f9 b83d
00000080: 3dab 09be f94f b63e c007 3a3e a1fa 9f3d
00000090: 5c09 933d 0576 6d3e a0a5 fdbc d25b d7bd
000000a0: 7533 a2bd 7cc1 223d 5868 d73c bcf1 7c3d
000000b0: 9532 4fbe cf05 e23d 0b2f b83e 014e 8f3e
000000c0: 7818 083e 1e2c 8b3d 53aa 773c 6986 393d
000000d0: b746 623d 431e 933d 30a7 253e 7285 283e
000000e0: 14af 90bc ee2b b33e f94f b33e 8819 e6bd
000000f0: eb17 633e f7ae 69bb 4956 7dbd 481c 703d
00000100: 6399 0e3e c964 553d d1e5 e4bc 7e03 263e
00000110: 5774 803d 492a f73d fc23 6cbe 2ddd e73c
00000120: e994 24be 4c4e 4f3d c5d8 2fbe 383a a73d
00000130: 17a9 1dbe 7d8b 3e3c 22c4 983d 8738 a93d
00000140: fe24 bebe 44e7 853e f1f6 663e 8f89 3f3d
00000150: 5e10 133d 255e 583e 10a6 d4b8 c382 683d
00000160: 12f0 d2bc 40bc 443e d401 21bc a573 8f3d
00000170: a545 f1bc 04de 423c c08a e3bc 38d2 c9bc
00000180: 95cf 843d dc01 f5ba 0b99 25bc 5f07 ac3e
00000190: 145f f0bd 2a3b ba3e 3845 dabe 8ad2 0e3e
000001a0: 4a1b 473e 814f 8dbd 6a77 153e 26cc 24bd
000001b0: 5055 a6bd 8fb9 03bd 4dba da3e 35c4 c23e
000001c0: 60f4 4fbe 53af f03a 03b3 a53e 4ae5 923c
000001d0: 04b6 ba3d ce8a 06bd c4ea 013c 6a4a b6bd
000001e0: 864a 043e a1a0 d33d 95b9 f7bd fff8 41be
000001f0: 0980 fbbd 31e5 74be d87c 0e3e ff8c 63bd
00000200: cb1f 023c 077f 493d bdc3 183d 9486 d23d
00000210: c810 b23e 35bc e5bc 41bb 3dbd ed20 103d
00000220: 38c3 a53e c38a be3d b926 d0bd 6600 f63c
00000230: 97de 7eb9 82cb f03d 0960 913c ffb9 4e3e
00000240: 6933 7e3d 5dc2 8f3e d065 8b3e 5464 893e
00000250: c8cc 00be 9329 ee3c 7aae b9bd 7813 e53d
00000260: 8e79 2cbe b3ab a0bb 930d d7bd 51bf d03d
00000270: b424 013d 03e2 8b3d 3577 88be 47f1 4b3e
00000280: d84c 713d 2752 cbbd 46fa ab3d ccac c5bd
00000290: abe5 f43c 62b0 63be 87b3 96bc 014a 59be
000002a0: 9d19 5bbe 770f 743c ffd5 623e f177 3c3e
000002b0: 3ac6 153e e022 4d3e a7cf 0ebe d37b 473e
000002c0: 3fe6 89bc 9279 76bc c4e6 983c ca0d 35bd
000002d0: a098 013d 5737 7fbe fe5c 3bbd ea8b 033e
000002e0: e26e d5bc 8309 71be d933 f6bd 3e97 79be
000002f0: 7c91 97bd b1aa a03e a8f9 b53e 1985 81be
00000300: 92a9 933d a490 06bb a850 343e 1b1a 4abd
00000310: 5414 1b3e 681c 60bd daa7 4c3d 0803 09be
00000320: ecec 7abe 808a 34be 40f7 fbbd 545d 0b3e
00000330: e482 1dbe d8e6 75bd 46ca c3bd 2f70 063e
00000340: e59e 0f3e beb9 0ebe 6eb8 ac3d ebc1 483e
00000350: e01c b13e 5738 de3d 6537 4d3c 9334 0a3e
00000360: 025f fd3d 5146 b2bd 96db a7bd 7043 223e
00000370: 6c8b 843d 54c5 e13d 521c 79be 3ddd a43d
00000380: b0f5 2a3e 0b02 343e 51a3 fb3d ddf3 133e
00000390: c384 043e f73f f13d 4657 c43d f444 b1bd
000003a0: cb49 3d3e 5968 73be bc64 b53d 010b 05bd
000003b0: 699c 443e b6a4 0f3e 4557 173e bac3 8d3d
000003c0: 3311 56be bd51 5bbe db56 18be fba7 9ebd
000003d0: aec5 6ebe 2f53 ca3d de34 423c 3829 afbd
000003e0: 0762 b3bd ed25 273e 119c 3a3e 844f 7dbd
000003f0: 7657 21be 094c 593e b8e2 243d b65a d4be
0.35371536 0.28637353 -0.052856676 0.16500331 0.24482664 0.19384368 0.10472591 -0.0767891
0.021417648 0.025569769 -0.022984194 -0.15787624 0.08800425 -0.038312916 -0.25061083 0.034432277
-0.03610505 0.20122539 -0.18067221 0.08120264 -0.16355291 -0.08746953 0.38380983 -0.07113031
0.18143028 0.012687378 0.38210678 0.069305085 -0.14171715 -0.15011145 0.15416297 0.090319574
-0.13444228 0.3560789 0.18167019 0.078114755 0.071795195 0.23189552 -0.030962765 -0.1051556
-0.07919971 0.039735302 0.026294872 0.061753973 -0.2023414 0.11036264 0.3597339 0.279892
0.13290584 0.06795524 0.015116292 0.0452942 0.05524322 0.07183506 0.16177058 0.16457155
-0.017661609 0.34994453 0.35021952 -0.112353384 0.22177093 -0.0035657266 -0.061849866 0.05862072
0.139257 0.05209807 -0.027941616 0.1621227 0.0627219 0.12068612 -0.23060602 0.028303707
-0.1607243 0.05061178 -0.17172535 0.08165401 -0.15396534 0.011629936 0.07459284 0.08262735
-0.37137598 0.26153004 0.22555138 0.046762045 0.03590428 0.21129663 -0.00010139879 0.05676533
-0.02574924 0.19212437 -0.009827096 0.07004479 -0.029452154 0.011893753 -0.027776122 -0.024636373
0.06484906 -0.0018692571 -0.010107289 0.33599374 -0.11736885 0.36373264 -0.42630935 0.13947502
0.19444004 -0.0689993 0.14596334 -0.040233754 -0.08121741 -0.032159384 0.4272026 0.3804032
-0.20308065 0.0018362798 0.32363138 0.0179316 0.09116748 -0.03284722 0.007929508 -0.08900912
0.12919053 0.10333372 -0.12095944 -0.1894264 -0.1228028 -0.23915555 0.13914812 -0.055554386
0.00794215 0.04919341 0.037296046 0.10279575 0.34778428 -0.028043846 -0.046321157 0.03518765
0.32375503 0.093038104 -0.10163636 0.030029487 -0.00024306249 0.11757566 0.017745988 0.2018814
0.062060747 0.28077975 0.27226114 0.26834357 -0.12578118 0.029072559 -0.09066482 0.11185354
-0.16843244 -0.0049032806 -0.10500636 0.10192741 0.031529143 0.06830218 -0.26653448 0.19916259
0.058911175 -0.09927779 0.08397345 -0.09652099 0.02989467 -0.22235253 -0.018396152 -0.21219636
-0.2139649 0.014896265 0.22151946 0.18405129 0.14626399 0.20032835 -0.139464 0.19480829
-0.016833423 -0.015043633 0.018664725 -0.044202603 0.031639695 -0.24923454 -0.04574298 0.12846342
-0.02605385 -0.23538785 -0.12021608 -0.243741 -0.07400796 0.31380227 0.35542035 -0.25296858
0.07210077 -0.002053299 0.17608893 -0.049341302 0.15144473 -0.05471459 0.049964763 -0.13380063
-0.24504441 -0.17630959 -0.123030186 0.1360982 -0.15381962 -0.060034603 -0.09560065 0.13128732
0.14025457 -0.13938043 0.08433615 0.19605224 0.34592342 0.1085059 0.012525414 0.13496618
0.12371637 -0.08704818 -0.081961796 0.15846038 0.06471905 0.110239655 -0.2432721 0.0805001
0.16695285 0.17578904 0.122870095 0.14448495 0.1294127 0.117797785 0.095869586 -0.0865573
0.18485181 -0.23770274 0.08857104 -0.032481197 0.1920029 0.14027676 0.14779384 0.069220975
-0.20904998 -0.214179 -0.14876883 -0.077468835 -0.23317596 0.09879147 0.011853425 -0.08552784
-0.087589316 0.16323061 0.18223597 -0.06184341 -0.1575602 0.21220411 0.04025528 -0.41475457
